name: "smart-net-test"
layer {
  name: "data"
  type: "Input"
  top: "demand"
  input_param {
    shape: {dim: 1 dim: 1 dim: 32 dim: 32}
  }
}

layer {
  name: "conv2"
  type: "Convolution"
  bottom: "demand"
  top: "conv2"
  param {
    lr_mult: 1
    decay_mult: 1
  }
  param {
    lr_mult: 2
    decay_mult: 0
  }
  convolution_param {
    num_output: 15
    kernel_size: 5
    stride: 1
    weight_filler {
      type: "gaussian"
      std: 0.01
    }
    bias_filler {
      type: "constant"
      value: 0
    }
  }
}

layer {
  name: "relu2"
  type: "ReLU"
  bottom: "conv2"
  top: "conv2"
}


layer {
  name: "conv4"
  type: "Convolution"
  bottom: "conv2"
  top: "conv4"
  param {
    lr_mult: 1
    decay_mult: 1
  }
  param {
    lr_mult: 2
    decay_mult: 0
  }
  convolution_param {
    num_output: 25
    kernel_size: 3
    stride: 1
    weight_filler {
      type: "gaussian"
      std: 0.01
    }
    bias_filler {
      type: "constant"
      value: 0
    }
  }
}


layer{
	name: "relu4"
	type: "ReLU"
	bottom: "conv4"
	top: "conv4"
}


layer {
    name: "output1"
    type: "MultiOutput"
    bottom: "conv4"
    top: "output1"
    param {
        lr_mult: 1
        decay_mult: 1
    }
    param {
        lr_mult: 2
        decay_mult: 0
    }
    multi_output_param {
        num_output: 1
        weight_filler {
            type: "gaussian"
            std: 0.005
        }
        bias_filler {
            type: "constant"
            value: 0.1
        }

        full_topo_file: "/home/fanquan/Desktop/output_full_topo.txt"
        layer_no: 1
    }
}
